…
ges/radvol.jpg', min_size=25, max_size=707, scale_factor_init=0.75, noise_weight=0.1, batch_size=1, crop_size=0, num_steps=4000, lr=0.0005, gen_betas=[0.5, 0.9], dis_betas=[0.5, 0.9], num_critic=1, step_size=2000, gamma=0.1, penalty_weight=0.1, reconstruction_weight=10.0, adversarial_weight=1.0, seed=261, print_every=200, eval_every=100, results_dir='./results', save='2024-07-24_17-12-55', evaluation=False, model_to_load='', amps_to_load='', use_tb=False, save_path='./results/2024-07-24_17-12-55')
MultiVanilla(
  (curr): Vanilla(
    (features): Sequential(
      (0): BasicBlock(
        (conv): Conv2d(3, 32, kernel_size=(3, 3), stride=(1, 1))
        (batch_norm): BatchNorm2d(32, eps=1e-05, momentum=0.1, affine=True, track_running_stats=True)
        (lrelu): LeakyReLU(negative_slope=0.2, inplace=True)
      )
      (1): BasicBlock(
        (conv): Conv2d(32, 32, kernel_size=(3, 3), stride=(1, 1))
        (batch_norm): BatchNorm2d(32, eps=1e-05, momentum=0.1, affine=True, track_running_stats=True)
        (lrelu): LeakyReLU(negative_slope=0.2, inplace=True)
      )
      (2): BasicBlock(
        (conv): Conv2d(32, 32, kernel_size=(3, 3), stride=(1, 1))
        (batch_norm): BatchNorm2d(32, eps=1e-05, momentum=0.1, affine=True, track_running_stats=True)
        (lrelu): LeakyReLU(negative_slope=0.2, inplace=True)
      )
      (3): BasicBlock(
        (conv): Conv2d(32, 32, kernel_size=(3, 3), stride=(1, 1))
        (batch_norm): BatchNorm2d(32, eps=1e-05, momentum=0.1, affine=True, track_running_stats=True)
        (lrelu): LeakyReLU(negative_slope=0.2, inplace=True)
      )
    )
    (features_to_image): Sequential(
      (0): Conv2d(32, 3, kernel_size=(3, 3), stride=(1, 1))
      (1): Tanh()
    )
  )
  (prev): Module()
)
Vanilla(
  (features): Sequential(
    (0): BasicBlock(
      (conv): Conv2d(3, 32, kernel_size=(3, 3), stride=(1, 1))
      (batch_norm): BatchNorm2d(32, eps=1e-05, momentum=0.1, affine=True, track_running_stats=True)
      (lrelu): LeakyReLU(negative_slope=0.2, inplace=True)
    )
    (1): BasicBlock(
      (conv): Conv2d(32, 32, kernel_size=(3, 3), stride=(1, 1))
      (batch_norm): BatchNorm2d(32, eps=1e-05, momentum=0.1, affine=True, track_running_stats=True)
      (lrelu): LeakyReLU(negative_slope=0.2, inplace=True)
    )
    (2): BasicBlock(
      (conv): Conv2d(32, 32, kernel_size=(3, 3), stride=(1, 1))
      (batch_norm): BatchNorm2d(32, eps=1e-05, momentum=0.1, affine=True, track_running_stats=True)
      (lrelu): LeakyReLU(negative_slope=0.2, inplace=True)
    )
    (3): BasicBlock(
      (conv): Conv2d(32, 32, kernel_size=(3, 3), stride=(1, 1))
      (batch_norm): BatchNorm2d(32, eps=1e-05, momentum=0.1, affine=True, track_running_stats=True)
      (lrelu): LeakyReLU(negative_slope=0.2, inplace=True)
    )
  )
  (classifier): Conv2d(32, 1, kernel_size=(3, 3), stride=(1, 1))
)
Number of parameters in generator: 29763
Number of parameters in discriminator: 29185

Scale #1
Iteration 0, D: 0.060598, D_r: 0.125562, D_f: -0.099892, D_gp: 0.349276, G: 5.47173, G_recon: 0.53248, G_adv: 0.14692
/home/aideb/miniconda3/envs/senv/lib/python3.10/site-packages/torch/optim/lr_scheduler.py:156: UserWarning: The epoch parameter in `scheduler.
…
